…
/gpfs/home1/scur1405/HAET/benchmarks/04-PDE-Solving-StandardBenchmark/exp_ns.py:76: FutureWarning: `torch.cuda.amp.GradScaler(args...)` is deprecated. Please use `torch.amp.GradScaler('cuda', args...)` instead.
  scaler = GradScaler() if args.use_amp else None
(1200, 64, 64, 20)
Dataloading is over.
Namespace(lr=0.001, epochs=500, weight_decay=1e-05, model='HAETransolver_Structured_Mesh_2D', n_hidden=256, n_layers=8, n_heads=8, batch_size=2, gpu='0', max_grad_norm=None, downsample=1, mlp_ratio=1, dropout=0.0, unified_pos=1, ref=8, slice_num=32, eval=0, save_name='ns_HAETransolver', data_path='./data/fno', use_wandb=1, wandb_project='PDE-Solving', wandb_entity=None, use_amp=1)
OptimizedModule(
  (_orig_mod): Model(
    (preprocess): MLP(
      (linear_pre): Sequential(
        (0): Linear(in_features=74, out_features=512, bias=True)
        (1): GELU(approximate='none')
      )
      (linear_post): Linear(in_features=512, out_features=256, bias=True)
      (linears): ModuleList()
    )
    (blocks): ModuleList(
      (0-6): 7 x TransolverErwinBlock(
        (ln_1): LayerNorm((256,), eps=1e-05, elementwise_affine=True)
        (Attn): Physics_Attention_Structured_Mesh_2D(
          (in_project_x): Conv2d(256, 256, kernel_size=(3, 3), stride=(1, 1), padding=(1, 1))
          (in_project_slice): Linear(in_features=32, out_features=32, bias=True)
          (ada_temp_linear): Linear(in_features=32, out_features=1, bias=True)
          (erwin): ErwinTransformer(
            (encoder): ModuleList(
              (0): BasicLayer(
                (blocks): ModuleList(
                  (0-1): 2 x ErwinTransformerBlock(
                    (norm1): RMSNorm((32,), eps=None, elementwise_affine=True)
                    (norm2): RMSNorm((32,), eps=None, elementwise_affine=True)
                    (BMSA): BallMSA(
                      (qkv): Linear(in_features=32, out_features=96, bias=True)
                      (proj): Linear(in_features=32, out_features=32, bias=True)
                      (pe_proj): Linear(in_features=2, out_features=32, bias=True)
                    )
                    (swiglu): SwiGLU(
                      (w1): Linear(in_features=32, out_features=32, bias=True)
                      (w2): Linear(in_features=32, out_features=32, bias=True)
                      (w3): Linear(in_features=32, out_features=32, bias=True)
                    )
                  )
                )
                (pool): BallPooling(
                  (proj): Linear(in_features=68, out_features=64, bias=True)
                  (norm): BatchNorm1d(64, eps=1e-05, momentum=0.1, affine=True, track_running_stats=True)
                )
              )
            )
            (bottleneck): BasicLayer(
              (blocks): ModuleList(
                (0-1): 2 x ErwinTransformerBlock(
                  (norm1): RMSNorm((64,), eps=None, elementwise_affine=True)
                  (norm2): RMSNorm((64,), eps=None, elementwise_affine=True)
                  (BMSA): BallMSA(
                    (qkv): Linear(in_features=64, out_features=192, bias=True)
                    (proj): Linear(in_features=64, out_features=64, bias=True)
                    (pe_proj): Linear(in_features=2, out_features=64, bias=True)
                  )
                  (swiglu): SwiGLU(
                    (w1): Linear(in_features=64, out_features=64, bias=True)
                    (w2): Linear(in_features=64, out_features=64, bias=True)
                    (w3): Linear(in_features=64, out_features=64, bias=True)
                  )
                )
              )
            )
            (decoder): ModuleList(
              (0): BasicLayer(
                (blocks): ModuleList(
                  (0-1): 2 x ErwinTransformerBlock(
                    (norm1): RMSNorm((32,), eps=None, elementwise_affine=True)
                    (norm2): RMSNorm((32,), eps=None, elementwise_affine=True)
                    (BMSA): BallMSA(
                      (qkv): Linear(in_features=32, out_features=96, bias=True)
                      (proj): Linear(in_features=32, out_features=32, bias=True)
                      (pe_proj): Linear(in_features=2, out_features=32, bias=True)
                    )
                    (swiglu): SwiGLU(
                      (w1): Linear(in_features=32, out_features=32, bias=True)
                      (w2): Linear(in_features=32, out_features=32, bias=True)
                      (w3): Linear(in_features=32, out_features=32, bias=True)
                    )
                  )
                )
                (unpool): BallUnpooling(
                  (proj): Linear(in_features=68, out_features=64, bias=True)
                  (norm): BatchNorm1d(32, eps=1e-05, momentum=0.1, affine=True, track_running_stats=True)
                )
              )
            )
          )
          (to_out): Sequential(
            (0): Linear(in_features=256, out_features=256, bias=True)
            (1): Dropout(p=0.0, inplace=False)
          )
        )
        (ln_2): LayerNorm((256,), eps=1e-05, elementwise_affine=True)
        (mlp): MLP(
          (linear_pre): Sequential(
            (0): Linear(in_features=256, out_features=256, bias=True)
            (1): GELU(approximate='none')
          )
          (linear_post): Linear(in_features=256, out_features=256, bias=True)
          (linears): ModuleList()
        )
      )
      (7): TransolverErwinBlock(
        (ln_1): LayerNorm((256,), eps=1e-05, elementwise_affine=True)
        (Attn): Physics_Attention_Structured_Mesh_2D(
          (in_project_x): Conv2d(256, 256, kernel_size=(3, 3), stride=(1, 1), padding=(1, 1))
          (in_project_slice): Linear(in_features=32, out_features=32, bias=True)
          (ada_temp_linear): Linear(in_features=32, out_features=1, bias=True)
          (erwin): ErwinTransformer(
            (encoder): ModuleList(
              (0): BasicLayer(
                (blocks): ModuleList(
                  (0-1): 2 x ErwinTransformerBlock(
                    (norm1): RMSNorm((32,), eps=None, elementwise_affine=True)
                    (norm2): RMSNorm((32,), eps=None, elementwise_affine=True)
                    (BMSA): BallMSA(
                      (qkv): Linear(in_features=32, out_features=96, bias=True)
                      (proj): Linear(in_features=32, out_features=32, bias=True)
                      (pe_proj): Linear(in_features=2, out_features=32, bias=True)
                    )
                    (swiglu): SwiGLU(
                      (w1): Linear(in_features=32, out_features=32, bias=True)
                      (w2): Linear(in_features=32, out_features=32, bias=True)
                      (w3): Linear(in_features=32, out_features=32, bias=True)
                    )
                  )
                )
                (pool): BallPooling(
                  (proj): Linear(in_features=68, out_features=64, bias=True)
                  (norm): BatchNorm1d(64, eps=1e-05, momentum=0.1, affine=True, track_running_stats=True)
                )
              )
            )
            (bottleneck): BasicLayer(
              (blocks): ModuleList(
                (0-1): 2 x ErwinTransformerBlock(
                  (norm1): RMSNorm((64,), eps=None, elementwise_affine=True)
                  (norm2): RMSNorm((64,), eps=None, elementwise_affine=True)
                  (BMSA): BallMSA(
                    (qkv): Linear(in_features=64, out_features=192, bias=True)
                    (proj): Linear(in_features=64, out_features=64, bias=True)
                    (pe_proj): Linear(in_features=2, out_features=64, bias=True)
                  )
                  (swiglu): SwiGLU(
                    (w1): Linear(in_features=64, out_features=64, bias=True)
                    (w2): Linear(in_features=64, out_features=64, bias=True)
                    (w3): Linear(in_features=64, out_features=64, bias=True)
                  )
                )
              )
            )
            (decoder): ModuleList(
              (0): BasicLayer(
                (blocks): ModuleList(
                  (0-1): 2 x ErwinTransformerBlock(
                    (norm1): RMSNorm((32,), eps=None, elementwise_affine=True)
                    (norm2): RMSNorm((32,), eps=None, elementwise_affine=True)
                    (BMSA): BallMSA(
                      (qkv): Linear(in_features=32, out_features=96, bias=True)
                      (proj): Linear(in_features=32, out_features=32, bias=True)
                      (pe_proj): Linear(in_features=2, out_features=32, bias=True)
                    )
                    (swiglu): SwiGLU(
                      (w1): Linear(in_features=32, out_features=32, bias=True)
                      (w2): Linear(in_features=32, out_features=32, bias=True)
                      (w3): Linear(in_features=32, out_features=32, bias=True)
                    )
                  )
                )
                (unpool): BallUnpooling(
                  (proj): Linear(in_features=68, out_features=64, bias=True)
                  (norm): BatchNorm1d(32, eps=1e-05, momentum=0.1, affine=True, track_running_stats=True)
                )
              )
            )
          )
          (to_out): Sequential(
            (0): Linear(in_features=256, out_features=256, bias=True)
            (1): Dropout(p=0.0, inplace=False)
          )
        )
        (ln_2): LayerNorm((256,), eps=1e-05, elementwise_affine=True)
        (mlp): MLP(
          (linear_pre): Sequential(
            (0): Linear(in_features=256, out_features=256, bias=True)
            (1): GELU(approximate='none')
          )
          (linear_post): Linear(in_features=256, out_features=256, bias=True)
          (linears): ModuleList()
        )
        (ln_3): LayerNorm((256,), eps=1e-05, elementwise_affine=True)
        (mlp2): Linear(in_features=256, out_features=1, bias=True)
      )
    )
  )
/gpfs/home1/scur1405/HAET/benchmarks/04-PDE-Solving-StandardBenchmark/exp_ns.py:222: FutureWarning: `torch.cuda.amp.autocast(args...)` is deprecated. Please use `torch.amp.autocast('cuda', args...)` instead.
  with autocast(enabled=use_auto_cast):
AUTOTUNE addmm(8192x512, 8192x74, 74x512)
  triton_mm_5 0.0215 ms 100.0% ACC_TYPE='tl.float32', ALLOW_TF32=False, BLOCK_K=16, BLOCK_M=64, BLOCK_N=64, B_PROLOGUE_CAST_TYPE=None, EVEN_K=False, GROUP_M=8, num_stages=2, num_warps=4
…
